data.pth (torch, 4991 bytes, 6 tensors)

l1.weight f4 [8, 54]
0.57691157 0.45168683 -0.5690216 0.4023626 -0.121753454 -0.7451484 -0.28641748 -0.43486205
-0.36785117 -0.26737666 0.3495077 0.7730964 0.15545171 0.6015215 0.3537874 0.68593925
0.56861526 -0.68416154 -0.31947365 0.6176604 0.40613827 0.6855925 0.5229981 0.71180403
0.2501078 0.387199 -0.2389797 0.50894827 -0.12428015 0.3392456 -0.42609552 0.5477309
0.33227283 -0.49398577 0.26366594 0.5137356 -0.0802479 -0.41793534 -0.21766768 -0.16049029
-0.41652796 -0.2884361 0.5149314 0.3662932 0.47771552 0.20018482 1.0049238 0.4931639
0.3449395 -0.4525498 0.47224143 -0.27357343 -0.3516153 0.14117579 -0.0833994 0.3826052
0.3572126 -0.14145654 -0.29297358 -0.1549858 0.20980851 0.23598178 0.619606 0.22704498
-0.10255675 0.33925304 0.48190787 0.3359157 0.4716723 0.066843405 -0.11172727 -0.11462618
0.33181262 -0.20394152 -0.007847751 -0.22982977 -0.18810254 0.0039794 0.22325228 -0.2924068
0.5227096 0.6600929 0.25805008 0.31665114 -0.18462208 0.33476865 -0.13298962 0.34084427
0.597141 0.06022044 0.37179333 0.46743342 0.28821456 0.12214845 -0.09689629 0.46125957
0.3029012 0.32459396 0.5301476 0.39989585 -0.41305876 -0.21321256 0.21663672 0.75526124
0.21558096 0.45894736 0.26456866 0.08322481 0.26450822 0.75798035 0.3662918 -0.014164694
0.20678458 -0.34279114 0.45505804 0.27443197 0.7387794 0.44704005 -0.23344885 -0.16350491
0.37748948 -0.1438761 0.5771067 -0.32986605 -0.1658354 -0.35032684 -0.36229616 -0.39919528
0.36951217 -0.39933574 -0.33484957 -0.42526317 0.17589721 -0.18422684 -0.38825628 0.54386747
-0.101335876 0.3723338 -0.32158425 -0.04102007 0.19935189 0.5155909 0.5364798 -0.15512119
0.057496376 0.515886 0.44166958 0.33271265 -0.32177055 -0.48154232 -0.17167298 0.5855292
0.3744153 0.55359536 0.8369887 0.28676352 -0.16526325 -0.631271 -0.3041884 -0.34697846
0.24362247 0.36258557 -0.20615931 0.37388748 -0.40999338 0.4311019 0.3018783 -0.49491176
-0.23019978 -0.39323735 -0.39393634 -0.34381387 0.38075498 0.39724877 0.24592216 0.46518412
0.3697157 0.3719988 0.55908966 -0.5302345 0.22329302 0.60365397 -0.0833979 0.7174647
0.5911863 0.7171648 0.31174368 0.43647087 0.10075785 0.54178655 0.10270118 0.36144674
-0.2945141 0.43447715 -0.14905632 -0.4594807 0.4668888 0.2711691 -0.10801977 -0.5316001
-0.17867135 -0.19995345 -0.2814395 0.22021984 0.26483718 0.29593936 0.036513675 0.44348425
-0.5438988 -0.22295891 0.26005682 0.31991017 0.4203867 0.21209393 -0.24684794 0.079644226
-0.07880331 -0.30763137 0.05075201 -0.18693775 0.08126362 0.53380173 0.36778563 0.2747208
0.515756 0.274523 -0.29599312 0.44509938 0.72009104 0.56097186 0.08143516 0.2101609
-0.114687815 0.564333 0.4522018 -0.41907346 -0.16819835 -0.4216487 -0.42168105 -0.15428935
0.15344167 -0.31028363 0.7545519 -0.35473055 0.5891302 -0.37316984 0.27482146 0.4725872
-0.14174946 0.15308802 -0.16873112 0.08830478 0.44618914 0.56428885 0.16544709 0.10804077
00000000: 7ab0 133f 7f43 e73e 66ab 11bf 7902 ce3e
00000010: e059 f9bd 0cc2 3ebf 50a5 92be 3da6 debe
00000020: fd56 bcbe 98e5 88be acf2 b23e a5e9 453f
00000030: bc2e 1f3e 50fd 193f 9f23 b53e b799 2f3f
00000040: c590 113f 3625 2fbf 0d92 a3be fe1e 1e3f
00000050: 5bf1 cf3e fd82 2f3f 34e3 053f ca38 363f
00000060: 210e 803e f33e c63e 18b7 74be 6f4a 023f
00000070: 9786 febd 99b1 ad3e 3129 dabe 1838 0c3f
00000080: aa1f aa3e b4eb fcbe 39ff 863e 2d84 033f
00000090: 0359 a4bd 9ffb d5be 47e4 5ebe 9157 24be
000000a0: 2743 d5be e6ad 93be 8bd2 033f c88a bb3e
000000b0: 2197 f43e 40fd 4c3e 58a1 803f fb7f fc3e
000000c0: e99b b03e 9bb4 e7be a1c9 f13e d111 8cbe
000000d0: ec06 b4be 6390 103e 4ecd aabd d4e4 c33e
000000e0: 92e4 b63e fcd9 10be a200 96be 99b4 1ebe
000000f0: 0bd8 563e 35a5 713e 809e 1e3f 7b7e 683e
00000100: 4609 d2bd 93b2 ad3e a1bc f63e 25fd ab3e
00000110: 087f f13e 32e5 883d 44d1 e4bd 21c1 eabd
00000120: 58e3 a93e 0cd6 50be da93 00bc 7f58 6bbe
00000130: f49d 40be a065 823b 3f9c 643e 58b6 95be
00000140: 4cd0 053f d9fb 283f 241f 843e 1920 a23e
00000150: 920d 3dbe cc66 ab3e 6e2e 08be 2483 ae3e
00000160: 3cde 183f b5a9 763d b25b be3e 6f53 ef3e
00000170: dc90 933e f728 fa3d 9071 c6bd 372a ec3e
00000180: de15 9b3e 2e31 a63e c1b7 073f 26bf cc3e
00000190: 707c d3be 6554 5abe 04d6 5d3e cd58 413f
000001a0: 41c1 5c3e 26fb ea3e 8b75 873e c571 aa3d
000001b0: 9f6d 873e 000b 423f 998a bb3e 0813 68bc
000001c0: 56bf 533e 5282 afbe 5efd e83e 5982 8c3e
000001d0: a620 3d3f 6fe2 e43e 370d 6fbe d56d 27be
000001e0: 4d46 c13e 4254 13be 44bd 133f 34e4 a8be
000001f0: c1d0 29be 0a5e b3be e27e b9be 5363 ccbe
00000200: b330 bd3e bc75 ccbe 6771 abbe 18bc d9be
00000210: 661e 343e f6a5 3cbe 87c9 c6be e63a 0b3f
00000220: 2f89 cfbd 89a2 be3e b1a6 a4be a904 28bd
00000230: e722 4c3e c4fd 033f bd56 093f 17d8 1ebe
00000240: 5281 6b3d 1b11 043f 8422 e23e 5059 aa3e
00000250: 1cbf a4be b78c f6be 0bcb 2fbe 3ee5 153f
00000260: 5db3 bf3e 6db8 0d3f e444 563f abd2 923e
00000270: c53a 29be fa9a 21bf 95be 9bbe 29a7 b1be
00000280: 2b78 793e d1a4 b93e 6d1b 53be 2e6e bf3e
00000290: a7ea d1be 63b9 dc3e cb8f 9a3e 1365 fdbe
000002a0: 7eb9 6bbe 6856 c9be 06b2 c9be 5f08 b0be
000002b0: 51f2 c23e 3164 cb3e 05d3 7b3e 9d2c ee3e
000002c0: 604b bd3e a076 be3e 8020 0f3f 73bd 07bf
000002d0: eda6 643e 1189 1a3f 85cc aabd c4ab 373f
000002e0: fc57 173f 1d98 373f de9c 9f3e 1c79 df3e
000002f0: 225a ce3d 86b2 0a3f ff54 d23d 8c0f b93e
00000300: 8dca 96be ca73 de3e 38a2 18be 0e41 ebbe
00000310: 0c0c ef3e add6 8a3e 7839 ddbd f216 08bf
00000320: 9ff5 36be 99c0 4cbe d718 90be 4f81 613e
00000330: bd98 873e 5d85 973e 5d8f 153d 5e10 e33e
00000340: f43c 0bbf 574f 64be 2b26 853e 44cb a33e
00000350: ed3c d73e 272f 593e b5c5 7cbe 831c a33d
00000360: a163 a1bd dc81 9dbe 57e1 4f3d 9c6c 3fbe
00000370: 8a6d a63d 3ba7 083f 664e bc3e 34a8 8c3e
00000380: 9608 043f 478e 8c3e 698c 97be 11e4 e33e
00000390: e357 383f da9b 0f3f 7ac7 a63d 6b34 573e
000003a0: 72e1 eabd 2178 103f ff86 e73e cc90 d6be
000003b0: 303c 2cbe 57e2 d7be 94e6 d7be 07fe 1dbe
000003c0: d01f 1d3e 7fdd 9ebe 502a 413f 3e9f b5be
000003d0: 3dd1 163f 1e10 bfbe 66b5 8c3e f3f6 f13e
000003e0: c526 11be 1bc3 1c3e dac7 2cbe 23d9 b43d
000003f0: e772 e43e 3c75 103f f66a 293e 7b44 dd3d

l1.bias f4 [8]
0.7663485 0.33007097 0.3992603 0.543929 0.42170188 0.6362377 0.9411977 0.22059885
00000000: 6a2f 443f 10ff a83e d96b cc3e ee3e 0b3f
00000010: 4fe9 d73e 79e0 223f 55f2 703f aae4 613e

l2.weight f4 [8, 8]
0.6487849 -0.8813762 -0.7093597 -0.020586092 -0.24082755 0.9666458 1.5317404 -0.920437
0.94226176 0.7559928 0.09483817 1.080119 -0.6034817 -0.61003095 0.22554065 -0.12348934
-0.35740522 -0.044944566 -0.7428467 0.77094245 0.9036124 -0.12165351 1.048986 -1.2631449
0.36064348 0.15852852 1.2446022 -1.1421715 0.0072969515 1.0846324 0.714727 0.663836
-0.303722 0.47115454 1.3766977 -0.18386942 0.08556803 0.7456192 0.10417015 0.47550493
1.3664464 -0.071742795 0.46846434 1.242557 -0.6036307 0.05969879 0.100308165 -0.33446082
-1.2469662 0.9604592 0.3336511 -0.39287022 1.1521615 -0.07231034 0.89331883 0.38907427
0.5501138 1.1700163 -0.8653643 0.45269933 1.1645333 -0.65466523 -0.92920893 1.2075651
00000000: c416 263f dfa1 61bf 9998 35bf 2aa4 a8bc
00000010: 7f9b 76be 1976 773f 1210 c43f c2a1 6bbf
00000020: 1138 713f bf88 413f 843a c23d 5741 8a3f
00000030: c77d 1abf fd2a 1cbf 21f4 663e fbe7 fcbd
00000040: d1fd b6be cb17 38bd 342b 3ebf 7c5c 453f
00000050: 2453 673f 7a25 f9bd 2c45 863f bbae a1bf
00000060: 43a6 b83e 4d55 223e 204f 9f3f ad32 92bf
00000070: 441b ef3b 3cd5 8a3f 59f8 363f 28f1 293f
00000080: 7381 9bbe 2b3b f13e a137 b03f 4448 3cbe
00000090: 4b3e af3d e6e0 3e3f 2957 d53d 6275 f33e
000000a0: b7e7 ae3f e3ed 92bd 8fda ef3e 1c0c 9f3f
000000b0: 8b87 1abf b886 743d 5e6e cd3d 733e abbe
000000c0: 979c 9fbf a7e0 753f 51d4 aa3e 4926 c9be
000000d0: 077a 933f 7217 94bd 8bb0 643f be34 c73e
000000e0: 42d4 0c3f 18c3 953f 8488 5dbf 35c8 e73e
000000f0: 6d0f 953f 2498 27bf a3e0 6dbf 7e91 9a3f

l2.bias f4 [8]
1.0088995 0.3518857 0.3807782 -0.3124212 -0.5599661 0.30538192 0.460997 0.12865897
00000000: 9e23 813f 5d2a b43e 5cf5 c23e acf5 9fbe
00000010: f059 0fbf 055b 9c3e cc07 ec3e 2dbf 033e

l3.weight f4 [7, 8]
-1.1522073 0.414932 -2.288049 -1.031172 -1.3201022 0.15188226 -1.1325889 0.6187831
-1.263112 0.5590547 -2.009183 0.012554427 0.3769712 0.17621192 -0.2970826 -0.42962718
0.6159794 -1.2847332 1.1810004 -0.10301733 -1.339644 -0.91836417 0.7272701 -0.76549923
0.6091096 0.55568075 1.05496 -1.5811574 -0.92502 0.39092505 -1.3509954 -0.78759974
-0.88035244 -0.23462251 -0.2738507 -0.5871795 -0.0050396193 -1.0497305 0.48634848 0.49792597
-0.9394572 -0.93102384 -2.0661716 0.8219176 0.5880421 -1.045465 0.438934 -0.5302104
0.57772624 -0.81276685 -2.1335337 0.9047152 0.11860248 -0.117589936 -1.4148 -0.62139356
00000000: 877b 93bf f871 d43e 656f 12c0 72fd 83bf
00000010: 1cf9 a8bf 0687 1b3e acf8 90bf 9268 1e3f
00000020: a7ad a1bf 351e 0f3f 7496 00c0 15b1 4d3c
00000030: 5e02 c13e e670 343e 361b 98be 18f8 dbbe
00000040: d3b0 1d3f 2372 a4bf 052b 973f c0fa d2bd
00000050: 7479 abbf ea19 6bbf 602e 3a3f c2f7 43bf
00000060: 9bee 1b3f 1841 0e3f ee08 873f 5e63 cabf
00000070: 1cce 6cbf 5427 c83e 6bed acbf 23a0 49bf
00000080: c75e 61bf e240 70be 2936 8cbe 6551 16bf
00000090: 6423 a5bb 925d 86bf ab02 f93e 27f0 fe3e
000000a0: 4480 70bf 9457 6ebf 283c 04c0 3169 523f
000000b0: ed89 163f ccd1 85bf f5bb e03e debb 07bf
000000c0: dee5 133f 7d11 50bf d18b 08c0 6a9b 673f
000000d0: dbe5 f23d fed2 f0bd 2b18 b5bf a613 1fbf

l3.bias f4 [7]
-0.045948565 -0.20289403 0.18976228 0.1948763 0.20565669 -0.025323374 -0.38827592
00000000: 9034 3cbd 74c3 4fbe 0b51 423e a78d 473e
00000010: ab97 523e f772 cfbc 1acc c6be
